…
            "80142336/80134624 [==============================] - 1s 0us/step\n",
            "80150528/80134624 [==============================] - 1s 0us/step\n",
            "Model: \"vgg19\"\n",
            "_________________________________________________________________\n",
            " Layer (type)                Output Shape              Param #   \n",
            "=================================================================\n",
            " input_1 (InputLayer)        [(None, 128, 128, 3)]     0         \n",
            "                                                                 \n",
            " block1_conv1 (Conv2D)       (None, 128, 128, 64)      1792      \n",
            "                                                                 \n",
            " block1_conv2 (Conv2D)       (None, 128, 128, 64)      36928     \n",
            "                                                                 \n",
            " block1_pool (MaxPooling2D)  (None, 64, 64, 64)        0         \n",
            "                                                                 \n",
            " block2_conv1 (Conv2D)       (None, 64, 64, 128)       73856     \n",
            "                                                                 \n",
            " block2_conv2 (Conv2D)       (None, 64, 64, 128)       147584    \n",
            "                                                                 \n",
            " block2_pool (MaxPooling2D)  (None, 32, 32, 128)       0         \n",
            "                                                                 \n",
            " block3_conv1 (Conv2D)       (None, 32, 32, 256)       295168    \n",
            "                                                                 \n",
            " block3_conv2 (Conv2D)       (None, 32, 32, 256)       590080    \n",
            "                                                                 \n",
            " block3_conv3 (Conv2D)       (None, 32, 32, 256)       590080    \n",
            "                                                                 \n",
            " block3_conv4 (Conv2D)       (None, 32, 32, 256)       590080    \n",
            "                                                                 \n",
            " block3_pool (MaxPooling2D)  (None, 16, 16, 256)       0         \n",
            "                                                                 \n",
            " block4_conv1 (Conv2D)       (None, 16, 16, 512)       1180160   \n",
            "                                                                 \n",
            " block4_conv2 (Conv2D)       (None, 16, 16, 512)       2359808   \n",
            "                                                                 \n",
            " block4_conv3 (Conv2D)       (None, 16, 16, 512)       2359808   \n",
            "                                                                 \n",
            " block4_conv4 (Conv2D)       (None, 16, 16, 512)       2359808   \n",
            "                                                                 \n",
            " block4_pool (MaxPooling2D)  (None, 8, 8, 512)         0         \n",
            "                                                                 \n",
            " block5_conv1 (Conv2D)       (None, 8, 8, 512)         2359808   \n",
            "                                                                 \n",
            " block5_conv2 (Conv2D)       (None, 8, 8, 512)         2359808   \n",
            "                                                                 \n",
            " block5_conv3 (Conv2D)       (None, 8, 8, 512)         2359808   \n",
            "                                                                 \n",
            " block5_conv4 (Conv2D)       (None, 8, 8, 512)         2359808   \n",
            "                                                                 \n",
            " block5_pool (MaxPooling2D)  (None, 4, 4, 512)         0         \n",
            "                                                                 \n",
            "=================================================================\n",
            "Total params: 20,024,384\n",
            "Trainable params: 0\n",
            "Non-trainable params: 20,024,384\n",
            "_________________________________________________________________\n"
          ]
…
      "outputs": [
        {
          "output_type": "stream",
          "name": "stdout",
          "text": [
            "Model: \"model\"\n",
            "_________________________________________________________________\n",
            " Layer (type)                Output Shape              Param #   \n",
            "=================================================================\n",
            " input_1 (InputLayer)        [(None, 128, 128, 3)]     0         \n",
            "                                                                 \n",
            " block1_conv1 (Conv2D)       (None, 128, 128, 64)      1792      \n",
            "                                                                 \n",
            " block1_conv2 (Conv2D)       (None, 128, 128, 64)      36928     \n",
            "                                                                 \n",
            " block1_pool (MaxPooling2D)  (None, 64, 64, 64)        0         \n",
            "                                                                 \n",
            " block2_conv1 (Conv2D)       (None, 64, 64, 128)       73856     \n",
            "                                                                 \n",
            " block2_conv2 (Conv2D)       (None, 64, 64, 128)       147584    \n",
            "                                                                 \n",
            " block2_pool (MaxPooling2D)  (None, 32, 32, 128)       0         \n",
            "                                                                 \n",
            " block3_conv1 (Conv2D)       (None, 32, 32, 256)       295168    \n",
            "                                                                 \n",
            " block3_conv2 (Conv2D)       (None, 32, 32, 256)       590080    \n",
            "                                                                 \n",
            " block3_conv3 (Conv2D)       (None, 32, 32, 256)       590080    \n",
            "                                                                 \n",
            " block3_conv4 (Conv2D)       (None, 32, 32, 256)       590080    \n",
            "                                                                 \n",
            " block3_pool (MaxPooling2D)  (None, 16, 16, 256)       0         \n",
            "                                                                 \n",
            " block4_conv1 (Conv2D)       (None, 16, 16, 512)       1180160   \n",
            "                                                                 \n",
            " block4_conv2 (Conv2D)       (None, 16, 16, 512)       2359808   \n",
            "                                                                 \n",
            " block4_conv3 (Conv2D)       (None, 16, 16, 512)       2359808   \n",
            "                                                                 \n",
            " block4_conv4 (Conv2D)       (None, 16, 16, 512)       2359808   \n",
            "                                                                 \n",
            " block4_pool (MaxPooling2D)  (None, 8, 8, 512)         0         \n",
            "                                                                 \n",
            " block5_conv1 (Conv2D)       (None, 8, 8, 512)         2359808   \n",
            "                                                                 \n",
            " block5_conv2 (Conv2D)       (None, 8, 8, 512)         2359808   \n",
            "                                                                 \n",
            " block5_conv3 (Conv2D)       (None, 8, 8, 512)         2359808   \n",
            "                                                                 \n",
            " block5_conv4 (Conv2D)       (None, 8, 8, 512)         2359808   \n",
            "                                                                 \n",
            " block5_pool (MaxPooling2D)  (None, 4, 4, 512)         0         \n",
            "                                                                 \n",
            " global_average_pooling2d (G  (None, 512)              0         \n",
            " lobalAveragePooling2D)                                          \n",
            "                                                                 \n",
            " dense (Dense)               (None, 100)               51300     \n",
            "                                                                 \n",
            " dense_1 (Dense)             (None, 10)                1010      \n",
            "                                                                 \n",
            " dense_2 (Dense)             (None, 2)                 22        \n",
            "                                                                 \n",
            "=================================================================\n",
            "Total params: 20,076,716\n",
            "Trainable params: 52,332\n",
            "Non-trainable params: 20,024,384\n",
            "_________________________________________________________________\n",
            "None\n"
…
